model_parameters.npz (npz, 64646 bytes, 4 tensors)

W1 f8 [10, 784]
0	0x3f8913b724895b2c	0.012244635393626156
1	0x3f9b2f9cc38f3992	0.02654881423569006
2	0x3f798e02b232ae73	0.0062389474216321015
3	0xbf1b4987c3d5c44c	-0.00010409251350097895
4	0x3f796f09a43929fe	0.006209409391497276
5	0x3f93f32bf89a106b	0.019482314156008245
6	0xbf7c45591867a8a0	-0.006902072933806874
7	0xbfab73faa6509571	-0.053619225313279346
8	0xbfb0e42c56112c77	-0.06598164654967485
9	0x3f9a681dafedc37b	0.025787795889701464
10	0xbfa22e9dc9b1bfb9	-0.035511904593362904
11	0xbfa4c4808466391f	-0.0405616914386988
12	0x3fad5f828bc236e1	0.057369308052427355
13	0x3fb252d15aaf09a3	0.0715761991878368
14	0x3fa04e44dd75ca59	0.03184714511271087
15	0xbf8a3b3a9a913907	-0.012808282701510366
16	0x3fa162a194cab61c	0.033955621159617005
17	0x3fa0c2149c0d91bc	0.03273071675247105
18	0x3fb5250d10eeafaa	0.0825966039980687
19	0xbf9420af4f6b92e4	-0.019655932638573584
20	0xbf991ed84192d905	-0.02453172588567389
21	0x3f8a463548ff59a6	0.01282922390957426
22	0xbf987ce11a76bdd2	-0.023913876762603987
23	0x3f92b4edd36e1df1	0.018268314389869592
24	0x3f88de59e4f54f83	0.012142851161719431
25	0x3fb10d5eec3d66dd	0.06661027209829791
26	0xbf66f73324e7f381	-0.002803420916505706
27	0xbf8b69d49af527d4	-0.013385449389392713
28	0x3fa650f039a56321	0.04358626083075579
29	0xbf9db36d4135692b	-0.029004771332759176
30	0xbfa22d7ca887dda8	-0.035503287861441024
31	0x3f9dca44fc995162	0.029091909329808437
32	0xbf910c897fc0fdd7	-0.016649387762525194
33	0x3f749e2409f3de05	0.005033627297272418
34	0xbf900613f6ec0d1d	-0.015648185678412852
35	0xbf9a7c3dc5ac5083	-0.025864567937859306
36	0x3f87ce4835942f4f	0.011623920569512029
37	0xbf8f63689e6ed293	-0.015326325736034796
38	0xbf9ac26465617298	-0.026132172286781413
39	0xbf835501f405d863	-0.00943948293636882
40	0xbf9fe86029598870	-0.031159880183971145
41	0x3f65480ddd4cb19a	0.0025978346624439654
42	0x3f888f1573dada2f	0.011991660688505849
43	0xbf747418943eb7cb	-0.004993530284918844
44	0xbf90c0e7d2a6f32a	-0.016360876304804574
45	0x3f71fd1de315ef69	0.004391781565001065
46	0xbfba876d6eb2d384	-0.10362895920373033
47	0xbf8bf855f62998dd	-0.013657256674559576
48	0xbfa01e3732bd6372	-0.031480526870558814
49	0x3f825c2a32e01bcf	0.008964852979273545
50	0x3f860fd356838ef3	0.010772372319884016
51	0xbfa5f98647f42fd2	-0.04291934612601235
52	0xbf6c5bdfabd52edd	-0.003461777551512542
53	0x3f95acf757661b8d	0.021167626103785465
54	0xbfa019f4cd5a1bf5	-0.031448030536061745
55	0x3f5be560f9a56263	0.0017026373885383965
56	0x3f9b716d72597831	0.026799879173602107
57	0xbf93caa3ac6b382d	-0.0193276952730274
58	0x3f9443d3a88bc486	0.0197899886724753
59	0x3f88861ebef2906d	0.011974563791518922
60	0xbf836bacc243de22	-0.009482717207432382
61	0xbf88f11857accd3a	-0.012178602386120663
62	0x3f89859a32750e7c	0.012461857476075304
63	0xbf9c0850bd3dbcb6	-0.027375470686305824
64	0xbf940cc2a7ae077f	-0.019579926952708156
65	0xbfa5021c6b44a6c0	-0.04103173074174782
66	0xbfb5949a20404961	-0.08429873740559436
67	0xbf9a1f0c66994966	-0.025509065401203478
68	0xbfa3ce9b6411dba3	-0.038685661283060634
69	0xbfad764843c2c908	-0.057543047210304066
70	0xbf719a6724a9029a	-0.004297640708103368
71	0xbf5ab575319c9658	-0.0016301769705448135
72	0x3fa5a32e3275e21c	0.042260593089796766
73	0x3f9341d9fbd816a3	0.0188058910335004
74	0x3fa6e09cf39d1b4c	0.04468241189765951
75	0xbfb5b218c822de4c	-0.08474879156244092
76	0xbf6446c1be1bff19	-0.0024751457248156747
77	0xbfaa0c5210a45abe	-0.050875248462195696
78	0xbf70571c3e1ed4c3	-0.00398932487762699
79	0xbfa2cadfbc81a5cb	-0.036704055558242375
80	0x3f9c1530f6fc7dc0	0.02742458827480987
81	0x3f87d87f19043e95	0.01164340300650161
82	0x3fb2c488d4db2b42	0.07331137844736893
83	0xbf899d3259cba69d	-0.012506860127774739
84	0x3f8e6bcc0e89eed8	0.014854044145287501
85	0xbf6a18f0155df208	-0.00318571940709789
86	0xbf837f4c629c86f1	-0.009520146140463011
87	0xbf9dd56524b59eff	-0.02913435017163035
88	0x3f586f2e3ba1eb46	0.0014913512700604633
89	0x3f9cab36ddfdc658	0.02799688081672111
90	0x3f7eff3b82fbb561	0.007567627398868155
91	0xbfab3a3a6b3e9b2b	-0.05317862090242039
92	0xbf75f29be5bf5dec	-0.005358323072833109
93	0x3f9b02aeaf08a642	0.026377419884886295
94	0xbfb0c2fc7e6e78f5	-0.06547525488574364
95	0x3fa080de61c4ee68	0.03223318999741026
96	0xbf9d72c39effd409	-0.028758102969693087
97	0xbfa1717233df5d96	-0.03406865008553976
98	0xbf95705a48133b4d	-0.0209364038935818
99	0xbf827ca7044a4c72	-0.009026818102290533
100	0xbf4a280c446bd74c	-0.0007982311152250148
101	0xbf8cd8bfee2a42e7	-0.014085292297097719
102	0x3fa2c3ec7ffcc0da	0.036651030181362024
103	0x3fab7366c1c629e2	0.05361481776624878
104	0x3f8b95abebf68f24	0.013469069613001823
105	0xbfb0e9a6190fe1ae	-0.0660651980578055
106	0x3faec13bc85bfd32	0.060068004806448264
107	0xbfab49cc78c2e606	-0.05329741453301655
108	0x3fa61f42ddb85995	0.043207253995365104
109	0x3fae092c79b1300e	0.05866374001979589
110	0xbf8eab5a6311e73b	-0.014975267551779239
111	0x3f948683b8b5bae7	0.02004438223724039
112	0xbf9f6b4cbc614830	-0.03068275356083222
113	0xbf9bd337954555de	-0.02717291687561906
114	0x3fa19a3c1dd3cc11	0.03437984336951428
115	0x3f3fc799a6c9b14a	0.0004849195600289581
116	0xbfa56a29b5cd4afb	-0.041825583880060045
117	0x3f941640062a1125	0.019616127372971044
118	0xbfb04193895591f1	-0.0635006151474682
119	0x3f95659199e716e5	0.020895266550517006
120	0xbfb14f55031138a4	-0.06761676144489798
121	0xbfb770992d8d09d8	-0.09156186449130332
122	0xbf69bf9502d27294	-0.0031431112643772272
123	0xbfaaf5fc1a362052	-0.052657964896810086
124	0xbfb153b10765e618	-0.06768328123680367
125	0xbfabfccde26c1cb0	-0.054663118256990884
126	0xbf9845652943b3c3	-0.023702221530516498
127	0xbfacf28cf530e0fb	-0.05653801434567814
128	0xbf91787ec3de6f04	-0.01706121511925486
129	0xbfb1a653362f673e	-0.06894416878585916
130	0x3f950b287228edef	0.020550376861349248
131	0x3fa1a36406154d37	0.034449697249011306
132	0x3f7eeaf70e17af42	0.0075482988918159095
133	0xbf816d0506c7caa7	-0.008508719701216206
134	0x3f9a9485820bc95a	0.025957189619427147
135	0x3fa2cb5b2ee09771	0.036707734558418255
136	0x3f8b21544d6bda25	0.013247164356909267
137	0x3fa1a3bb5cd5f69d	0.034452300150389116
138	0xbfae2746ee39aa63	-0.05889341028235575
139	0xbfa58c08a723b165	-0.04208399811054412
140	0x3faf779b7e6bfb44	0.0614594070266237
141	0xbf913fa9be29801f	-0.016844417792867824
142	0x3f764f6cd5062663	0.005446839452255855
143	0x3f95508a00b417a3	0.020815044682443006
144	0x3f9979708121b52f	0.02487731731564685
145	0x3fb12f1f77b031fb	0.06712528869702077
146	0x3f844eeb7cd643d8	0.00991615271303374
147	0xbfa4d18a209be3da	-0.040661159973701635
148	0xbfb6b0c2157c2001	-0.08863461517842099
149	0xbfaf8d9edc5acfc6	-0.06162735404851065
150	0xbf9cd26e22fdfa19	-0.028146477590320716
151	0xbf9ff6c1760a55d4	-0.031214735822308118
152	0x3f72079a49d1a3d1	0.004401781739127268
153	0xbfb83c343efda531	-0.09466864145146726
154	0xbfba95a86113f30e	-0.1038460957533511
155	0xbfa908669185e942	-0.04889221693425096
156	0xbfa1c8f3e095c846	-0.03473627201573541
157	0xbfbd47cc711ce44c	-0.11437680970711134
158	0xbf96d61bf7283713	-0.022301136932632092
159	0x3f8461e19a650310	0.009952318691490741
160	0xbfa00c6b93665183	-0.031344758742451816
161	0x3fab846efe16c9ac	0.05374476291344207
162	0x3fb25b89e2a49360	0.0717092684104279
163	0x3fa87059f9aa7540	0.04773217365912297
164	0x3fa156e427639cb9	0.03386605244468783
165	0xbf7b060b7ab7ff3f	-0.0065975616848844
166	0x3f9e9dd3207b664b	0.029898928506417993
167	0xbfaa61cf7319d2a6	-0.051527483749770384
168	0x3f9071ea3a0d6794	0.016059551041827172
169	0x3fa1f79117687d1e	0.035091909511033345
170	0xbfa26a9f8740cdc6	-0.03596972013510995
171	0xbf90e1b414f45605	-0.016485990313489313
172	0xbfabb68eecd9e229	-0.05412718430756442
173	0x3fa90870bce3e2d7	0.04889252000606852
174	0xbfb671098efb5f95	-0.08766231289643962
175	0xbfb4f178b0e0290e	-0.0818095619035015
176	0xbf9a2220c1baed93	-0.02552081282077052
177	0xbfa0d6dc67e175da	-0.03288925903391844
178	0x3f76e17b660782ef	0.005586130166620447
179	0x3f5d5fff2244c925	0.0017929069081899587
180	0xbf745fd6bebb85f6	-0.004974211547705823
181	0x3f7cf6aebfbe605d	0.007071192372585325
182	0x3fba67233e0a3584	0.10313625588078962
183	0xbf8880d13040b0ea	-0.011964449200683142
184	0x3f93592abc8567b3	0.01889483237878382
185	0xbf97d6653b57e914	-0.023278791186364847
186	0x3f953406a665012d	0.02070627585021716
187	0x3fbb24dd81b37632	0.10603126923111786
188	0x3fab737830d0cc2b	0.053615337332665845
189	0x3fa04a5d564a340b	0.031817356856755984
190	0x3fabed59471268b5	0.054545202184458054
191	0x3fc04b2837c974ea	0.12729361270877543
192	0x3fa4f3740714323d	0.040919900764582164
193	0x3f90b5f75ca56be6	0.0163191461846103
194	0xbf917cf812cf73f1	-0.017078281543820798
195	0xbf6bf8fc14e0b1c7	-0.0034146235912173336
196	0x3f548de7f06626ba	0.0012545361547346271
197	0x3fb0a07641999797	0.06494845487176658
198	0xbf85f894c8793054	-0.010728037231409505
199	0xbf991a1141fbeea5	-0.024513501789427256
200	0xbfaa577fafccea5e	-0.051448812685028086
201	0xbfa01a99f92a8b49	-0.03145295301989976
202	0xbf9d062ed307231a	-0.028343898420447912
203	0xbfb1c7fbc0b4705a	-0.0694577546568679
204	0xbf5cdfe4880e9580	-0.0017623645546590294
205	0xbf970c85e8baf736	-0.022508709268314685
206	0x3fb586a1da2c43b4	0.08408557487952245
207	0x3f9f3081cc16ae7d	0.03045847709806403
208	0x3fbe44d41dff8930	0.11823774082543959
209	0x3fc073d5288fe846	0.1285349319512667
210	0x3fc326718653d972	0.1496107011696029
211	0x3fb6686ae7755650	0.0875307860454424
212	0x3fc17a9ed78b0475	0.136554579969047
213	0x3fb054c7bc57213c	0.06379364345696542
214	0x3fb791c53ed65f0c	0.0920680311595527
215	0x3fb0aa9f923ae139	0.0651035053259691
216	0x3fac91daab00966f	0.055800279020599024
217	0x3f99a4edfc1309ef	0.025043219099424915
218	0x3fb44bc1a2a31a35	0.07928095074303416
219	0x3fabd053647c2358	0.054323774353241816
220	0x3fae20a21b87aabf	0.058842721806134694
221	0x3faf311ef099e8bb	0.060921637411369876
222	0x3f8a2f6a73729753	0.012785751007253465
223	0xbf984296347e7faf	-0.023691508249271184
224	0x3f94c7400d0e0825	0.02029132919006584
225	0xbfa5f3c6c52edef8	-0.042875491686059364
226	0x3f7f20f82f74fd1e	0.007599801515709074
227	0x3f98ebac9aa2b9f0	0.02433652585812668
228	0x3f67cfdd5ada2c75	0.0029067347848630806
229	0xbf98085d33051992	-0.023469406355866314
230	0xbfa990cb20cc6031	-0.04993281150217433
231	0xbfa5cda24bcb89ad	-0.04258448767884047
232	0x3fadf5ecb3c90bdf	0.05851688093800766
233	0x3f900418c7cf5091	0.015640628047393582
234	0x3fa41e9dd91bbd17	0.039296086075291274
235	0x3fa704858b6a6244	0.04495637251711007
236	0xbf922944d94f15a3	-0.017735553515895962
237	0x3fb5236e6c6908b4	0.08257188936935017
238	0x3fa2f59f01b1fab0	0.03703019042676681
239	0xbf62d6122f915886	-0.0022993426505691387
240	0x3fb1c5d00ba03ef1	0.06942463191830563
241	0x3fb53c1cbd2b7df1	0.08294849031835107
242	0x3fb5886edc60440a	0.08411305313372011
243	0xbf86f525a4ef5235	-0.011209768386757005
244	0x3fb012c09ce10b3c	0.0627861388211785
245	0x3fb1a92eb8f4add7	0.06898777022859491
246	0x3fa734ac01058333	0.0453237296339978
247	0x3fb24b93c5117e7a	0.07146571694601703
248	0x3fbb0493aa1d2e20	0.10553858664678062
249	0x3fbfa1c8d2e3937b	0.123562385069432
250	0x3fac9db526a6e80f	0.05589071366144093
251	0xbf7cb149b41c57b0	-0.007005012421151521
252	0x3fbd82d2f676a15b	0.1152774669377598
253	0xbf947edf6bf1736d	-0.02001523109753427
254	0xbf8489c0a2a6bae3	-0.010028367007945465
255	0xbfb3701bba8943a2	-0.07592938713174971

b1 f8 [10, 1]
0	0x3fe0815ed08d7cc2	0.515792281465018
1	0x3fcba72c02ea25f9	0.21603918211285114
2	0xbf918a48d0624484	-0.01712907573579915
3	0x3fdbc5d40939f180	0.4339494791127194
4	0x3fbb20af7e6b0ca5	0.10596749149685765
5	0x3fd6bfdb2ab2b16c	0.3554599682782029
6	0xbfc7501c8409fcc9	-0.1821323055955644
7	0x3fa7d8d5e9f175fd	0.046576199347992266
8	0x3fdf8aaa644135ad	0.49283847609043613
9	0x3fa59ca9815bc746	0.042210862198671026

W2 f8 [10, 10]
0	0xbfee40e2d4265211	-0.9454206603573444
1	0xbfd0990fac95b48d	-0.259342115917044
2	0x3fcdeb4a0564b35f	0.23374295485828164
3	0xbfcd405e4920fa6a	-0.2285268647264787
4	0x3fec3dd5d885127a	0.882548258676777
5	0x3fcff7d0b0d651b1	0.2497502196753323
6	0x3fe27baa3a8ed009	0.5775958198269119
7	0xbfd40313fb24c9de	-0.3126878693175551
8	0xbfeead6453343645	-0.9586660027577599
9	0x3fcbc8b74050fd70	0.21706286087463011
10	0x3fd389b29867a068	0.30527939685135275
11	0xbfc5be65089a1569	-0.16987288398756142
12	0xbfe0dd2bca36df45	-0.5269984197138703
13	0xbfdb4c21e8d6c36b	-0.4265217565362522
14	0xbfe80db3ed8c79fd	-0.7516727103828199
15	0x3fc35c22a1b47f43	0.15124924560313432
16	0xbfcf07b4922b85fc	-0.24242264878471065
17	0xbfe8f2c5de2669fa	-0.7796353663318876
18	0x3ff16c6f378a890b	1.0889732522560418
19	0x3fcd65ea168358c6	0.2296726808478466
20	0xbff3710847a4bc32	-1.2150957869123542
21	0x3fb476a59facef8b	0.0799354090531194
22	0x3fdbbf38e5a8986b	0.4335462801703957
23	0x3f9d6bffec8b3092	0.02873229867218236
24	0x3fd54217c191e895	0.33215898421588835
25	0xbfdedd44e945776a	-0.4822551992455063
26	0xbfca0a3bfc83ca49	-0.20343732671570283
27	0xbfd71e302af92d7b	-0.36121753880134805
28	0x3fe46161765cd53e	0.6368872939844221
29	0x3fe84c19a5203014	0.7592895722496018
30	0x3fb79411c751cd35	0.09210311046790738
31	0x3fa17de9d828089b	0.03416376842143728
32	0xbfb1291ded62960c	-0.06703364415678709
33	0x3fd07760823d0006	0.2572861930711955
34	0x3ff11260f8f7848d	1.0669870114582267
35	0xbfde601506fa6d21	-0.4746143882891421
36	0x3fb51ae714ee47f4	0.08244175206189636
37	0xbfeefefbf37678ec	-0.96862599898648
38	0x3fd4600946c299a7	0.31836158666774356
39	0xbfd425f25a313718	-0.3148160820754682
40	0x3fa4a21cecb7e557	0.04029932393673146
41	0x3fedd4875c3bbcd6	0.9321934510643597
42	0xbfd3d4fbec5b798c	-0.30987451631326546
43	0x3feb4764b9ea09cb	0.8524650221955253
44	0xbfeb7c8faaea4563	-0.8589552248178446
45	0x3fcae3a0202dcb85	0.21007157870516494
46	0x3fd1a419e51f86e7	0.27564093947704155
47	0x3fc7d0bdd24b1eba	0.18605778473123796
48	0xbfd49ddfd15ef157	-0.3221358818662074
49	0xbfd7dae10ad2a392	-0.3727343183223236
50	0x3fe3ee3baa2db7ca	0.622831184749651
51	0xbfaaabea0e83f611	-0.05209285189810598
52	0x3fc379bddd37f594	0.15215276052178395
53	0xbfdc3038ee30ee3e	-0.44044326077321105
54	0x3fb3401c2dc15568	0.07519699208326858
55	0x3fe2f156ebb5964a	0.5919603923509353
56	0x3fe1c0384612b284	0.5547143334020608
57	0xbfe297f0d51261f5	-0.5810474549826369
58	0xbfe1c6a655300083	-0.5554992355173599
59	0x3fbf78ba3152c8e4	0.12293590263542203
60	0xbfd15d3186013e67	-0.27131307684337574
61	0xbfdb4a1ff3d4d8a8	-0.42639921962416816
62	0x3ff02eb32e880a23	1.0114013497956271
63	0xbfd15c315273706c	-0.27125199367379227
64	0xbfe1e76ff26afa61	-0.5595016226505544
65	0xbfa95dcf52ca4d97	-0.049543837410193685
66	0xbfe48f4f1b174ca3	-0.6424937752839422
67	0x3fc3c2014d9ddbb6	0.15435806550860115
68	0xbfd52354eacd2f41	-0.33028147630533417
69	0xbfcdfe53acd41bab	-0.23432393969434648
70	0x3fc5b2aa991f80fc	0.16951496578895575
71	0x3fd59b71aae57f0c	0.33761254967792875
72	0xbfefd7b479547105	-0.9950811738704323
73	0x3fd4d1b6429ebc2a	0.32529980188241103
74	0x3febbfa6493822fc	0.8671447210373056
75	0x3fd972016fdaa2d7	0.39758335040327836
76	0xbfec96b7a7a2355b	-0.8933981203169127
77	0x3fa8d375fd659915	0.04848831861709094
78	0xbfb851c2a642214f	-0.09499756392518076
79	0x3fe49c19d7ec6ea7	0.6440552918679331
80	0x3fa8114e139fcfb1	0.04700702657274237
81	0xbfb8fdfddebdefd5	-0.09762560546909012
82	0x3f8be6fa16178e8c	0.013624147223658477
83	0xbfe925082b970441	-0.7857704974522975
84	0x3fb6150b67ab7fd9	0.08625861435893913
85	0xbfe4b473e4ac364c	-0.6470279184592953
86	0x3fe0c71ad97da385	0.5243047950617529
87	0x3fd84fea17a846ab	0.3798775893238637
88	0x3fcda46c40916967	0.23158028748259626
89	0xbf97a4250f270c84	-0.023087100076520276
90	0x3fe0ceb4cd79061f	0.525232697786297
91	0xbfcdb4be6d4ad99a	-0.23207836472074633
92	0xbfd869950573e11c	-0.38144422085271557
93	0x3fd69c37b676b675	0.35328476732943354
94	0x3fc468a114c86433	0.15944303049835326
95	0xbfeb195b2592458c	-0.8468452199760335
96	0xbfd6a98e895e1a6c	-0.35409892477802063
97	0x3fe677c60af576ce	0.702120801357262
98	0xbfe07a2b1dc45b3f	-0.5149131375681931
99	0x3fbbc62bacf203e3	0.10849259350108258

b2 f8 [10, 1]
0	0xbfc00076973a5012	-0.1250141371170917
1	0x3fba48f6c85f6d86	0.10267584220803458
2	0x3fa546eadf390d58	0.04155668234718729
3	0xbfc4527689ad7459	-0.15876657221352522
4	0xbfbd7bff9ebb414e	-0.11517331719665444
5	0x3fc710a580201b9d	0.18019551044582452
6	0x3fdbed83d93ed3ca	0.4363717671906754
7	0xbf8000368af880bb	-0.00781290637593234
8	0xbfdb07d4f8db049e	-0.422353022597301
9	0xbfae272654ea78e8	-0.05889243876048217
